…
d. It will be removed in the future and UntypedStorage will be the only storage class. This should only matter to you if you are using storages directly.  To access UntypedStorage directly, use tensor.untyped_storage() instead of tensor.storage()\n  return super().__sizeof__() + self.nbytes()\n\n\n==========================================================================================\nLayer (type:depth-idx)                   Output Shape              Param #\n==========================================================================================\nFC                                       [1, 100]                  --\n├─Sequential: 1-1                        [1, 100]                  --\n│    └─FCBlock: 2-1                      [1, 100]                  --\n│    │    └─Linear: 3-1                  [1, 100]                  800\n│    │    └─Identity: 3-2                [1, 100]                  --\n│    └─FCBlock: 2-4                      --                        (recursive)\n│    │    └─LeakyReLU: 3-3               [1, 100]                  --\n│    └─FCBlock: 2-3                      [1, 100]                  --\n│    │    └─Linear: 3-4                  [1, 100]                  10,100\n│    │    └─Identity: 3-5                [1, 100]                  --\n│    └─FCBlock: 2-4                      --                        (recursive)\n│    │    └─LeakyReLU: 3-6               [1, 100]                  --\n│    └─FCBlock: 2-5                      [1, 100]                  --\n│    │    └─Linear: 3-7                  [1, 100]                  10,100\n│    │    └─Identity: 3-8                [1, 100]                  --\n│    │    └─LeakyReLU: 3-9               [1, 100]                  --\n│    └─Linear: 2-6                       [1, 100]                  10,100\n==========================================================================================\nTotal params: 31,100\nTrainable params: 31,100\nNon-trainable params: 0\nTotal mult-adds (M): 0.03\n==========================================================================================\nInput size (MB): 0.00\nForward/backward pass size (MB): 0.00\nParams size (MB): 0.12\nEstimated Total Size (MB): 0
…
